…
 block2a_expand_activation (Act  (None, 112, 112, 14  0          ['block2a_expand_bn[0][0]']      
 ivation)                       4)                                                                
                                                                                                  
 block2a_dwconv_pad (ZeroPaddin  (None, 113, 113, 14  0          ['block2a_expand_activation[0][0]
 g2D)                           4)                               ']                               
                                                                                                  
 block2a_dwconv (DepthwiseConv2  (None, 56, 56, 144)  1296       ['block2a_dwconv_pad[0][0]']     
 D)                                                                                               
                                                                                                  
 block2a_bn (BatchNormalization  (None, 56, 56, 144)  576        ['block2a_dwconv[0][0]']         
 )                                                                                                
                                                                                                  
 block2a_activation (Activation  (None, 56, 56, 144)  0          ['block2a_bn[0][0]']             
 )                                                                                                
                                                                                                  
 block2a_se_squeeze (GlobalAver  (None, 144)         0           ['block2a_activation[0][0]']     
 agePooling2D)                                                                                    
                                                                                                  
 block2a_se_reshape (Reshape)   (None, 1, 1, 144)    0           ['block2a_se_squeeze[0][0]']     
                                                                                                  
 block2a_se_reduce (Conv2D)     (None, 1, 1, 6)      870         ['block2a_se_reshape[0][0]']     
                                                                                                  
 block2a_se_expand (Conv2D)     (None, 1, 1, 144)    1008        ['block2a_se_reduce[0][0]']      
                                                                                                  
 block2a_se_excite (Multiply)   (None, 56, 56, 144)  0           ['block2a_activation[0][0]',     
                                                                  'block2a_se_expand[0][0]']      
                                                                                                  
 block2a_project_conv (Conv2D)  (None, 56, 56, 32)   4608        ['block2a_se_excite[0][0]']      
                                                                                                  
 block2a_project_bn (BatchNorma  (None, 56, 56, 32)  128         ['block2a_project_conv[0][0]']   
 lization)                                                                                        
                                                                                                  
 block2b_expand_conv (Conv2D)   (None, 56, 56, 192)  6144        ['block2a_project_bn[0][0]']     
                                                                                                  
 block2b_expand_bn (BatchNormal  (None, 56, 56, 192)  768        ['block2b_expand_conv[0][0]']    
 ization)                                                                                         
                                                                                                  
 block2b_expand_activation (Act  (None, 56, 56, 192)  0          ['block2b_expand_bn[0][0]']      
 ivation)                                                                                         
                                                                                                  
 block2b_dwconv (DepthwiseConv2  (None, 56, 56, 192)  1728       ['block2b_expand_activation[0][0]
 D)                                                              ']                               
                                                                                                  
 block2b_bn (BatchNormalization  (None, 56, 56, 192)  768        ['block2b_dwconv[0][0]']         
 )                                                                                                
                                                                                                  
 block2b_activation (Activation  (None, 56, 56, 192)  0          ['block2b_bn[0][0]']             
 )                                                                                                
                                                                                                  
 block2b_se_squeeze (GlobalAver  (None, 192)         0           ['block2b_activation[0][0]']     
 agePooling2D)                                                                                    
                                                                                                  
 block2b_se_reshape (Reshape)   (None, 1, 1, 192)    0           ['block2b_se_squeeze[0][0]']     
                                                                                                  
 block2b_se_reduce (Conv2D)     (None, 1, 1, 8)      1544        ['block2b_se_reshape[0][0]']     
                                                                                                  
 block2b_se_expand (Conv2D)     (None, 1, 1, 192)    1728        ['block2b_se_reduce[0][0]']      
                                                                                                  
 block2b_se_excite (Multiply)   (None, 56, 56, 192)  0           ['block2b_activation[0][0]',     
                                                                  'block2b_se_expand[0][0]']      
                                                                                                  
 block2b_project_conv (Conv2D)  (None, 56, 56, 32)   6144        ['block2b_se_excite[0][0]']      
                                                                                                  
 block2b_project_bn (BatchNorma  (None, 56, 56, 32)  128         ['block2b_project_conv[0][0]']   
 lization)                                                                                        
                                                                                                  
 block2b_drop (Dropout)         (None, 56, 56, 32)   0           ['block2b_project_bn[0][0]']     
                                                                                                  
 block2b_add (Add)              (None, 56, 56, 32)   0           ['block2b_drop[0][0]',           
                                                                  'block2a_project_bn[0][0]']     
                                                                                                  
 block2c_expand_conv (Conv2D)   (None, 56, 56, 192)  6144        ['block2b_add[0][0]']            
                                                                                                  
 block2c_expand_bn (BatchNormal  (None, 56, 56, 192)  768        ['block2c_expand_conv[0][0]']    
 ization)                                                                                         
                                                                                                  
 block2c_expand_activation (Act  (None, 56, 56, 192)  0          ['block2c_expand_bn[0][0]']      
 ivation)                                                                                         
                                                                                                  
 block2c_dwconv (DepthwiseConv2  (None, 56, 56, 192)  1728       ['block2c_expand_activation[0][0]
 D)                                                              ']                               
                                                                                                  
 block2c_bn (BatchNormalization  (None, 56, 56, 192)  768        ['block2c_dwconv[0][0]']         
 )                                                                                                
                                                                                                  
 block2c_activation (Activation  (None, 56, 56, 192)  0          ['block2c_bn[0][0]']             
 )                                                                                                
                                                                                                  
 block2c_se_squeeze (GlobalAver  (None, 192)         0           ['block2c_activation[0][0]']     
 agePooling2D)                                                                                    
                                                                                                  
 block2c_se_reshape (Reshape)   (None, 1, 1, 192)    0           ['block2c_se_squeeze[0][0]']     
                                                                                                  
 block2c_se_reduce (Conv2D)     (None, 1, 1, 8)      1544        ['block2c_se_reshape[0][0]']     
                                                                                                  
 block2c_se_expand (Conv2D)     (None, 1, 1, 192)    1728        ['block2c_se_reduce[0][0]']      
                                                                                                  
 block2c_se_excite (Multiply)   (None, 56, 56, 192)  0           ['block2c_activation[0][0]',     
                                                                  'block2c_se_expand[0][0]']      
                                                                                                  
 block2c_project_conv (Conv2D)  (None, 56, 56, 32)   6144        ['block2c_se_excite[0][0]']      
                                                                                                  
 block2c_project_bn (BatchNorma  (None, 56, 56, 32)  128         ['block2c_project_conv[0][0]']   
 lization)                                                                                        
                                                                                                  
 block2c_drop (Dropout)         (None, 56, 56, 32)   0           ['block2c_project_bn[0][0]']     
                                                                                                  
 block2c_add (Add)              (None, 56, 56, 32)   0           ['block2c_drop[0][0]',           
                                                                  'block2b_add[0][0]']            
                                                                                                  
 block3a_expand_conv (Conv2D)   (None, 56, 56, 192)  6144        ['block2c_add[0][0]']            
                                                                                                  
 block3a_expand_bn (BatchNormal  (None, 56, 56, 192)  768        ['block3a_expand_conv[0][0]']    
 ization)                                                                                         
                                                                                                  
 block3a_expand_activation (Act  (None, 56, 56, 192)  0          ['block3a_expand_bn[0][0]']      
 ivation)                                                                                         
                                                                                                  
 block3a_dwconv_pad (ZeroPaddin  (None, 59, 59, 192)  0          ['block3a_expand_activation[0][0]
 g2D)                                                            ']                               
                                                                                                  
 block3a_dwconv (DepthwiseConv2  (None, 28, 28, 192)  4800       ['block3a_dwconv_pad[0][0]']     
 D)                                                                                               
                                                                                                  
 block3a_bn (BatchNormalization  (None, 28, 28, 192)  768        ['block3a_dwconv[0][0]']         
 )                                                                                                
                                                                                                  
 block3a_activation (Activation  (None, 28, 28, 192)  0          ['block3a_bn[0][0]']             
 )                                                                                                
                                                                                                  
 block3a_se_squeeze (GlobalAver  (None, 192)         0           ['block3a_activation[0][0]']     
 agePooling2D)                                                                                    
                                                                                                  
 block3a_se_reshape (Reshape)   (None, 1, 1, 192)    0           ['block3a_se_squeeze[0][0]']     
                                                                                                  
 block3a_se_reduce (Conv2D)     (None, 1, 1, 8)      1544        ['block3a_se_reshape[0][0]']     
                                                                                                  
 block3a_se_expand (Conv2D)     (None, 1, 1, 192)    1728        ['block3a_se_reduce[0][0]']      
                                                                                                  
 block3a_se_excite (Multiply)   (None, 28, 28, 192)  0           ['block3a_activation[0][0]',     
                                                                  'block3a_se_expand[0][0]']      
                                                                                                  
 block3a_project_conv (Conv2D)  (None, 28, 28, 48)   9216        ['block3a_se_excite[0][0]']      
                                                                                                  
 block3a_project_bn (BatchNorma  (None, 28, 28, 48)  192         ['block3a_project_conv[0][0]']   
 lization)                                                                                        
                                                                                                  
 block3b_expand_conv (Conv2D)   (None, 28, 28, 288)  13824       ['block3a_project_bn[0][0]']     
                                                                                                  
 block3b_expand_bn (BatchNormal  (None, 28, 28, 288)  1152       ['block3b_expand_conv[0][0]']    
 ization)                                                                                         
                                                                                                  
 block3b_expand_activation (Act  (None, 28, 28, 288)  0          ['block3b_expand_bn[0][0]']      
 ivation)                                                                                         
                                                                                                  
 block3b_dwconv (DepthwiseConv2  (None, 28, 28, 288)  7200       ['block3b_expand_activation[0][0]
 D)                                                              ']                               
                                                                                                  
 block3b_bn (BatchNormalization  (None, 28, 28, 288)  1152       ['block3b_dwconv[0][0]']         
 )                                                                                                
                                                                                                  
 block3b_activation (Activation  (None, 28, 28, 288)  0          ['block3b_bn[0][0]']             
 )                                                                                                
                                                                                                  
 block3b_se_squeeze (GlobalAver  (None, 288)         0           ['block3b_activation[0][0]']     
 agePooling2D)                                                                                    
                                                                                                  
 block3b_se_reshape (Reshape)   (None, 1, 1, 288)    0           ['block3b_se_squeeze[0][0]']     
                                                                                                  
 block3b_se_reduce (Conv2D)     (None, 1, 1, 12)     3468        ['block3b_se_reshape[0][0]']     
                                                                                                  
 block3b_se_expand (Conv2D)     (None, 1, 1, 288)    3744        ['block3b_se_reduce[0][0]']      
                                                                                                  
 block3b_se_excite (Multiply)   (None, 28, 28, 288)  0           ['block3b_activation[0][0]',     
                                                                  'block3b_se_expand[0][0]']      
                                                                                                  
 block3b_project_conv (Conv2D)  (None, 28, 28, 48)   13824       ['block3b_se_excite[0][0]']      
                                                                                                  
 block3b_project_bn (BatchNorma  (None, 28, 28, 48)  192         ['block3b_project_conv[0][0]']   
 lization)                                                                                        
                                                                                                  
 block3b_drop (Dropout)         (None, 28, 28, 48)   0           ['block3b_project_bn[0][0]']     
                                                                                                  
 block3b_add (Add)              (None, 28, 28, 48)   0           ['block3b_drop[0][0]',           
                                                                  'block3a_project_bn[0][0]']     
                                                                                                  
 block3c_expand_conv (Conv2D)   (None, 28, 28, 288)  13824       ['block3b_add[0][0]']            
                                                                                                  
 block3c_expand_bn (BatchNormal  (None, 28, 28, 288)  1152       ['block3c_expand_conv[0][0]']    
 ization)                                                                                         
                                                                                                  
 block3c_expand_activation (Act  (None, 28, 28, 288)  0          ['block3c_expand_bn[0][0]']      
 ivation)                                                                                         
                                                                                                  
 block3c_dwconv (DepthwiseConv2  (None, 28, 28, 288)  7200       ['block3c_expand_activation[0][0]
 D)                                                              ']                               
                                                                                                  
 block3c_bn (BatchNormalization  (None, 28, 28, 288)  1152       ['block3c_dwconv[0][0]']         
 )                                                                                                
                                                                                                  
 block3c_activation (Activation  (None, 28, 28, 288)  0          ['block3c_bn[0][0]']             
 )                                                                                                
                                                                                                  
 block3c_se_squeeze (GlobalAver  (None, 288)         0           ['block3c_activation[0][0]']     
 agePooling2D)                                                                                    
                                                                                                  
 block3c_se_reshape (Reshape)   (None, 1, 1, 288)    0           ['block3c_se_squeeze[0][0]']     
                                                                                                  
 block3c_se_reduce (Conv2D)     (None, 1, 1, 12)     3468        ['block3c_se_reshape[0][0]']     
                                                                                                  
 block3c_se_expand (Conv2D)     (None, 1, 1, 288)    3744        ['block3c_se_reduce[0][0]']      
                                                                                                  
 block3c_se_excite (Multiply)   (None, 28, 28, 288)  0           ['block3c_activation[0][0]',     
                                                                  'block3c_se_expand[0][0]']      
                                                                                                  
 block3c_project_conv (Conv2D)  (None, 28, 28, 48)   13824       ['block3c_se_excite[0][0]']      
                                                                                                  
 block3c_project_bn (BatchNorma  (None, 28, 28, 48)  192         ['block3c_project_conv[0][0]']   
 lization)                                                                                        
                                                                                                  
 block3c_drop (Dropout)         (None, 28, 28, 48)   0           ['block3c_project_bn[0][0]']     
                                                                                                  
 block3c_add (Add)              (None, 28, 28, 48)   0           ['block3c_drop[0][0]',           
                                                                  'block3b_add[0][0]']            
                                                                                                  
 block4a_expand_conv (Conv2D)   (None, 28, 28, 288)  13824       ['block3c_add[0][0]']            
                                                                                                  
 block4a_expand_bn (BatchNormal  (None, 28, 28, 288)  1152       ['block4a_expand_conv[0][0]']    
 ization)                                                                                         
                                                                                                  
 block4a_expand_activation (Act  (None, 28, 28, 288)  0          ['block4a_expand_bn[0][0]']      
 ivation)                                                                                         
                                                                                                  
 block4a_dwconv_pad (ZeroPaddin  (None, 29, 29, 288)  0          ['block4a_expand_activation[0][0]
 g2D)                                                            ']                               
                                                                                                  
 block4a_dwconv (DepthwiseConv2  (None, 14, 14, 288)  2592       ['block4a_dwconv_pad[0][0]']     
 D)                                                                                               
                                                                                                  
 block4a_bn (BatchNormalization  (None, 14, 14, 288)  1152       ['block4a_dwconv[0][0]']         
 )                                                                                                
                                                                                                  
 block4a_activation (Activation  (None, 14, 14, 288)  0          ['block4a_bn[0][0]']             
 )                                                                                                
                                                                                                  
 block4a_se_squeeze (GlobalAver  (None, 288)         0           ['block4a_activation[0][0]']     
 agePooling2D)                                                                                    
                                                                                                  
 block4a_se_reshape (Reshape)   (None, 1, 1, 288)    0           ['block4a_se_squeeze[0][0]']     
                                                                                                  
 block4a_se_reduce (Conv2D)     (None, 1, 1, 12)     3468        ['block4a_se_reshape[0][0]']     
                                                                                                  
 block4a_se_expand (Conv2D)     (None, 1, 1, 288)    3744        ['block4a_se_reduce[0][0]']      
                                                                                                  
 block4a_se_excite (Multiply)   (None, 14, 14, 288)  0           ['block4a_activation[0][0]',     
                                                                  'block4a_se_expand[0][0]']      
                                                                                                  
 block4a_project_conv (Conv2D)  (None, 14, 14, 96)   27648       ['block4a_se_excite[0][0]']      
                                                                                                  
 block4a_project_bn (BatchNorma  (None, 14, 14, 96)  384         ['block4a_project_conv[0][0]']   
 lization)                                                                                        
                                                                                                  
 block4b_expand_conv (Conv2D)   (None, 14, 14, 576)  55296       ['block4a_project_bn[0][0]']     
                                                                                                  
 block4b_expand_bn (BatchNormal  (None, 14, 14, 576)  2304       ['block4b_expand_conv[0][0]']    
 ization)                                                                                         
                                                                                                  
 block4b_expand_activation (Act  (None, 14, 14, 576)  0          ['block4b_expand_bn[0][0]']      
 ivation)                                                                                         
                                                                                                  
 block4b_dwconv (DepthwiseConv2  (None, 14, 14, 576)  5184       ['block4b_expand_activation[0][0]
 D)                                                              ']                               
                                                                                                  
 block4b_bn (BatchNormalization  (None, 14, 14, 576)  2304       ['block4b_dwconv[0][0]']         
 )                                                                                                
                                                                                                  
 block4b_activation (Activation  (None, 14, 14, 576)  0          ['block4b_bn[0][0]']             
 )                                                                                                
                                                                                                  
 block4b_se_squeeze (GlobalAver  (None, 576)         0           ['block4b_activation[0][0]']     
 agePooling2D)                                                                                    
                                                                                                  
 block4b_se_reshape (Reshape)   (None, 1, 1, 576)    0           ['block4b_se_squeeze[0][0]']     
                                                                                                  
 block4b_se_reduce (Conv2D)     (None, 1, 1, 24)     13848       ['block4b_se_reshape[0][0]']     
                                                                                                  
 block4b_se_expand (Conv2D)     (None, 1, 1, 576)    14400       ['block4b_se_reduce[0][0]']      
                                                                                                  
 block4b_se_excite (Multiply)   (None, 14, 14, 576)  0           ['block4b_activation[0][0]',     
                                                                  'block4b_se_expand[0][0]']      
                                                                                                  
 block4b_project_conv (Conv2D)  (None, 14, 14, 96)   55296       ['block4b_se_excite[0][0]']      
                                                                                                  
 block4b_project_bn (BatchNorma  (None, 14, 14, 96)  384         ['block4b_project_conv[0][0]']   
 lization)                                                                                        
                                                                                                  
 block4b_drop (Dropout)         (None, 14, 14, 96)   0           ['block4b_project_bn[0][0]']     
                                                                                                  
 block4b_add (Add)              (None, 14, 14, 96)   0           ['block4b_drop[0][0]',           
                                                                  'block4a_project_bn[0][0]']     
                                                                                                  
 block4c_expand_conv (Conv2D)   (None, 14, 14, 576)  55296       ['block4b_add[0][0]']            
                                                                                                  
 block4c_expand_bn (BatchNormal  (None, 14, 14, 576)  2304       ['block4c_expand_conv[0][0]']    
 ization)                                                                                         
                                                                                                  
 block4c_expand_activation (Act  (None, 14, 14, 576)  0          ['block4c_expand_bn[0][0]']      
 ivation)                                                                                         
                                                                                                  
 block4c_dwconv (DepthwiseConv2  (None, 14, 14, 576)  5184       ['block4c_expand_activation[0][0]
 D)                                                              ']                               
                                                                                                  
 block4c_bn (BatchNormalization  (None, 14, 14, 576)  2304       ['block4c_dwconv[0][0]']         
 )                                                                                                
                                                                                                  
 block4c_activation (Activation  (None, 14, 14, 576)  0          ['block4c_bn[0][0]']             
 )                                                                                                
                                                                                                  
 block4c_se_squeeze (GlobalAver  (None, 576)         0           ['block4c_activation[0][0]']     
 agePooling2D)                                                                                    
                                                                                                  
 block4c_se_reshape (Reshape)   (None, 1, 1, 576)    0           ['block4c_se_squeeze[0][0]']     
                                                                                                  
 block4c_se_reduce (Conv2D)     (None, 1, 1, 24)     13848       ['block4c_se_reshape[0][0]']     
                                                                                                  
 block4c_se_expand (Conv2D)     (None, 1, 1, 576)    14400       ['block4c_se_reduce[0][0]']      
                                                                                                  
 block4c_se_excite (Multiply)   (None, 14, 14, 576)  0           ['block4c_activation[0][0]',     
                                                                  'block4c_se_expand[0][0]']      
                                                                                                  
 block4c_project_conv (Conv2D)  (None, 14, 14, 96)   55296       ['block4c_se_excite[0][0]']      
                                                                                                  
 block4c_project_bn (BatchNorma  (None, 14, 14, 96)  384         ['block4c_project_conv[0][0]']   
 lization)                                                                                        
                                                                                                  
 block4c_drop (Dropout)         (None, 14, 14, 96)   0           ['block4c_project_bn[0][0]']     
                                                                                                  
 block4c_add (Add)              (None, 14, 14, 96)   0           ['block4c_drop[0][0]',           
                                                                  'block4b_add[0][0]']            
                                                                                                  
 block4d_expand_conv (Conv2D)   (None, 14, 14, 576)  55296       ['block4c_add[0][0]']            
                                                                                                  
 block4d_expand_bn (BatchNormal  (None, 14, 14, 576)  2304       ['block4d_expand_conv[0][0]']    
 ization)                                                                                         
                                                                                                  
 block4d_expand_activation (Act  (None, 14, 14, 576)  0          ['block4d_expand_bn[0][0]']      
 ivation)                                                                                         
                                                                                                  
 block4d_dwconv (DepthwiseConv2  (None, 14, 14, 576)  5184       ['block4d_expand_activation[0][0]
 D)                                                              ']                               
                                                                                                  
 block4d_bn (BatchNormalization  (None, 14, 14, 576)  2304       ['block4d_dwconv[0][0]']         
 )                                                                                                
                                                                                                  
 block4d_activation (Activation  (None, 14, 14, 576)  0          ['block4d_bn[0][0]']             
 )                                                                                                
                                                                                                  
 block4d_se_squeeze (GlobalAver  (None, 576)         0           ['block4d_activation[0][0]']     
 agePooling2D)                                                                                    
                                                                                                  
 block4d_se_reshape (Reshape)   (None, 1, 1, 576)    0           ['block4d_se_squeeze[0][0]']     
                                                                                                  
 block4d_se_reduce (Conv2D)     (None, 1, 1, 24)     13848       ['block4d_se_reshape[0][0]']     
                                                                                                  
 block4d_se_expand (Conv2D)     (None, 1, 1, 576)    14400       ['block4d_se_reduce[0][0]']      
                                                                                                  
 block4d_se_excite (Multiply)   (None, 14, 14, 576)  0           ['block4d_activation[0][0]',     
                                                                  'block4d_se_expand[0][0]']      
                                                                                                  
 block4d_project_conv (Conv2D)  (None, 14, 14, 96)   55296       ['block4d_se_excite[0][0]']      
                                                                                                  
 block4d_project_bn (BatchNorma  (None, 14, 14, 96)  384         ['block4d_project_conv[0][0]']   
 lization)                                                                                        
                                                                                                  
 block4d_drop (Dropout)         (None, 14, 14, 96)   0           ['block4d_project_bn[0][0]']     
                                                                                                  
 block4d_add (Add)              (None, 14, 14, 96)   0           ['block4d_drop[0][0]',           
                                                                  'block4c_add[0][0]']            
                                                                                                  
 block4e_expand_conv (Conv2D)   (None, 14, 14, 576)  55296       ['block4d_add[0][0]']            
                                                                                                  
 block4e_expand_bn (BatchNormal  (None, 14, 14, 576)  2304       ['block4e_expand_conv[0][0]']    
 ization)                                                                                         
                                                                                                  
 block4e_expand_activation (Act  (None, 14, 14, 576)  0          ['block4e_expand_bn[0][0]']      
 ivation)                                                                                         
                                                                                                  
 block4e_dwconv (DepthwiseConv2  (None, 14, 14, 576)  5184       ['block4e_expand_activation[0][0]
 D)                                                              ']                               
                                                                                                  
 block4e_bn (BatchNormalization  (None, 14, 14, 576)  2304       ['block4e_dwconv[0][0]']         
 )                                                                                                
                                                                                                  
 block4e_activation (Activation  (None, 14, 14, 576)  0          ['block4e_bn[0][0]']             
 )                                                                                                
                                                                                                  
 block4e_se_squeeze (GlobalAver  (None, 576)         0           ['block4e_activation[0][0]']     
 agePooling2D)                                                                                    
                                                                                                  
 block4e_se_reshape (Reshape)   (None, 1, 1, 576)    0           ['block4e_se_squeeze[0][0]']     
                                                                                                  
 block4e_se_reduce (Conv2D)     (None, 1, 1, 24)     13848       ['block4e_se_reshape[0][0]']     
                                                                                                  
 block4e_se_expand (Conv2D)     (None, 1, 1, 576)    14400       ['block4e_se_reduce[0][0]']      
                                                                                                  
 block4e_se_excite (Multiply)   (None, 14, 14, 576)  0           ['block4e_activation[0][0]',     
                                                                  'block4e_se_expand[0][0]']      
                                                                                                  
 block4e_project_conv (Conv2D)  (None, 14, 14, 96)   55296       ['block4e_se_excite[0][0]']      
                                                                                                  
 block4e_project_bn (BatchNorma  (None, 14, 14, 96)  384         ['block4e_project_conv[0][0]']   
 lization)                                                                                        
                                                                                                  
 block4e_drop (Dropout)         (None, 14, 14, 96)   0           ['block4e_project_bn[0][0]']     
                                                                                                  
 block4e_add (Add)              (None, 14, 14, 96)   0           ['block4e_drop[0][0]',           
                                                                  'block4d_add[0][0]']            
                                                                                                  
 block5a_expand_conv (Conv2D)   (None, 14, 14, 576)  55296       ['block4e_add[0][0]']            
                                                                                                  
 block5a_expand_bn (BatchNormal  (None, 14, 14, 576)  2304       ['block5a_expand_conv[0][0]']    
 ization)                                                                                         
                                                                                                  
 block5a_expand_activation (Act  (None, 14, 14, 576)  0          ['block5a_expand_bn[0][0]']      
 ivation)                                                                                         
                                                                                                  
 block5a_dwconv (DepthwiseConv2  (None, 14, 14, 576)  14400      ['block5a_expand_activation[0][0]
 D)                                                              ']                               
                                                                                                  
 block5a_bn (BatchNormalization  (None, 14, 14, 576)  2304       ['block5a_dwconv[0][0]']         
 )                                                                                                
                                                                                                  
 block5a_activation (Activation  (None, 14, 14, 576)  0          ['block5a_bn[0][0]']             
 )                                                                                                
                                                                                                  
 block5a_se_squeeze (GlobalAver  (None, 576)         0           ['block5a_activation[0][0]']     
 agePooling2D)                                                                                    
                                                                                                  
 block5a_se_reshape (Reshape)   (None, 1, 1, 576)    0           ['block5a_se_squeeze[0][0]']     
                                                                                                  
 block5a_se_reduce (Conv2D)     (None, 1, 1, 24)     13848       ['block5a_se_reshape[0][0]']     
                                                                                                  
 block5a_se_expand (Conv2D)     (None, 1, 1, 576)    14400       ['block5a_se_reduce[0][0]']      
                                                                                                  
 block5a_se_excite (Multiply)   (None, 14, 14, 576)  0           ['block5a_activation[0][0]',     
                                                                  'block5a_se_expand[0][0]']      
                                                                                                  
 block5a_project_conv (Conv2D)  (None, 14, 14, 136)  78336       ['block5a_se_excite[0][0]']      
                                                                                                  
 block5a_project_bn (BatchNorma  (None, 14, 14, 136)  544        ['block5a_project_conv[0][0]']   
 lization)                                                                                        
                                                                                                  
 block5b_expand_conv (Conv2D)   (None, 14, 14, 816)  110976      ['block5a_project_bn[0][0]']     
                                                                                                  
 block5b_expand_bn (BatchNormal  (None, 14, 14, 816)  3264       ['block5b_expand_conv[0][0]']    
 ization)                                                                                         
                                                                                                  
 block5b_expand_activation (Act  (None, 14, 14, 816)  0          ['block5b_expand_bn[0][0]']      
 ivation)                                                                                         
                                                                                                  
 block5b_dwconv (DepthwiseConv2  (None, 14, 14, 816)  20400      ['block5b_expand_activation[0][0]
 D)                                                              ']                               
                                                                                                  
 block5b_bn (BatchNormalization  (None, 14, 14, 816)  3264       ['block5b_dwconv[0][0]']         
 )                                                                                                
                                                                                                  
 block5b_activation (Activation  (None, 14, 14, 816)  0          ['block5b_bn[0][0]']             
 )                                                                                                
                                                                                                  
 block5b_se_squeeze (GlobalAver  (None, 816)         0           ['block5b_activation[0][0]']     
 agePooling2D)                                                                                    
                                                                                                  
 block5b_se_reshape (Reshape)   (None, 1, 1, 816)    0           ['block5b_se_squeeze[0][0]']     
                                                                                                  
 block5b_se_reduce (Conv2D)     (None, 1, 1, 34)     27778       ['block5b_se_reshape[0][0]']     
                                                                                                  
 block5b_se_expand (Conv2D)     (None, 1, 1, 816)    28560       ['block5b_se_reduce[0][0]']      
                                                                                                  
 block5b_se_excite (Multiply)   (None, 14, 14, 816)  0           ['block5b_activation[0][0]',     
                                                                  'block5b_se_expand[0][0]']      
                                                                                                  
 block5b_project_conv (Conv2D)  (None, 14, 14, 136)  110976      ['block5b_se_excite[0][0]']      
                                                                                                  
 block5b_project_bn (BatchNorma  (None, 14, 14, 136)  544        ['block5b_project_conv[0][0]']   
 lization)                                                                                        
                                                                                                  
 block5b_drop (Dropout)         (None, 14, 14, 136)  0           ['block5b_project_bn[0][0]']     
                                                                                                  
 block5b_add (Add)              (None, 14, 14, 136)  0           ['block5b_drop[0][0]',           
                                                                  'block5a_project_bn[0][0]']     
                                                                                                  
 block5c_expand_conv (Conv2D)   (None, 14, 14, 816)  110976      ['block5b_add[0][0]']            
                                                                                                  
 block5c_expand_bn (BatchNormal  (None, 14, 14, 816)  3264       ['block5c_expand_conv[0][0]']    
 ization)                                                                                         
                                                                                                  
 block5c_expand_activation (Act  (None, 14, 14, 816)  0          ['block5c_expand_bn[0][0]']      
 ivation)                                                                                         
                                                                                                  
 block5c_dwconv (DepthwiseConv2  (None, 14, 14, 816)  20400      ['block5c_expand_activation[0][0]
 D)                                                              ']                               
                                                                                                  
 block5c_bn (BatchNormalization  (None, 14, 14, 816)  3264       ['block5c_dwconv[0][0]']         
 )                                                                                                
                                                                                                  
 block5c_activation (Activation  (None, 14, 14, 816)  0          ['block5c_bn[0][0]']             
 )                                                                                                
                                                                                                  
 block5c_se_squeeze (GlobalAver  (None, 816)         0           ['block5c_activation[0][0]']     
 agePooling2D)                                                                                    
                                                                                                  
 block5c_se_reshape (Reshape)   (None, 1, 1, 816)    0           ['block5c_se_squeeze[0][0]']     
                                                                                                  
 block5c_se_reduce (Conv2D)     (None, 1, 1, 34)     27778       ['block5c_se_reshape[0][0]']     
                                                                                                  
 block5c_se_expand (Conv2D)     (None, 1, 1, 816)    28560       ['block5c_se_reduce[0][0]']      
                                                                                                  
 block5c_se_excite (Multiply)   (None, 14, 14, 816)  0           ['block5c_activation[0][0]',     
                                                                  'block5c_se_expand[0][0]']      
                                                                                                  
 block5c_project_conv (Conv2D)  (None, 14, 14, 136)  110976      ['block5c_se_excite[0][0]']      
                                                                                                  
 block5c_project_bn (BatchNorma  (None, 14, 14, 136)  544        ['block5c_project_conv[0][0]']   
 lization)                                                                                        
                                                                                                  
 block5c_drop (Dropout)         (None, 14, 14, 136)  0           ['block5c_project_bn[0][0]']     
                                                                                                  
 block5c_add (Add)              (None, 14, 14, 136)  0           ['block5c_drop[0][0]',           
                                                                  'block5b_add[0][0]']            
                                                                                                  
 block5d_expand_conv (Conv2D)   (None, 14, 14, 816)  110976      ['block5c_add[0][0]']            
                                                                                                  
 block5d_expand_bn (BatchNormal  (None, 14, 14, 816)  3264       ['block5d_expand_conv[0][0]']    
 ization)                                                                                         
                                                                                                  
 block5d_expand_activation (Act  (None, 14, 14, 816)  0          ['block5d_expand_bn[0][0]']      
 ivation)                                                                                         
                                                                                                  
 block5d_dwconv (DepthwiseConv2  (None, 14, 14, 816)  20400      ['block5d_expand_activation[0][0]
 D)                                                              ']                               
                                                                                                  
 block5d_bn (BatchNormalization  (None, 14, 14, 816)  3264       ['block5d_dwconv[0][0]']         
 )                                                                                                
                                                                                                  
 block5d_activation (Activation  (None, 14, 14, 816)  0          ['block5d_bn[0][0]']             
 )                                                                                                
                                                                                                  
 block5d_se_squeeze (GlobalAver  (None, 816)         0           ['block5d_activation[0][0]']     
 agePooling2D)                                                                                    
                                                                                                  
 block5d_se_reshape (Reshape)   (None, 1, 1, 816)    0           ['block5d_se_squeeze[0][0]']     
                                                                                                  
 block5d_se_reduce (Conv2D)     (None, 1, 1, 34)     27778       ['block5d_se_reshape[0][0]']     
                                                                                                  
 block5d_se_expand (Conv2D)     (None, 1, 1, 816)    28560       ['block5d_se_reduce[0][0]']      
                                                                                                  
 block5d_se_excite (Multiply)   (None, 14, 14, 816)  0           ['block5d_activation[0][0]',     
                                                                  'block5d_se_expand[0][0]']      
                                                                                                  
 block5d_project_conv (Conv2D)  (None, 14, 14, 136)  110976      ['block5d_se_excite[0][0]']      
                                                                                                  
 block5d_project_bn (BatchNorma  (None, 14, 14, 136)  544        ['block5d_project_conv[0][0]']   
 lization)                                                                                        
                                                                                                  
 block5d_drop (Dropout)         (None, 14, 14, 136)  0           ['block5d_project_bn[0][0]']     
                                                                                                  
 block5d_add (Add)              (None, 14, 14, 136)  0           ['block5d_drop[0][0]',           
                                                                  'block5c_add[0][0]']            
                                                                                                  
 block5e_expand_conv (Conv2D)   (None, 14, 14, 816)  110976      ['block5d_add[0][0]']            
                                                                                                  
 block5e_expand_bn (BatchNormal  (None, 14, 14, 816)  3264       ['block5e_expand_conv[0][0]']    
 ization)                                                                                         
                                                                                                  
 block5e_expand_activation (Act  (None, 14, 14, 816)  0          ['block5e_expand_bn[0][0]']      
 ivation)                                                                                         
                                                                                                  
 block5e_dwconv (DepthwiseConv2  (None, 14, 14, 816)  20400      ['block5e_expand_activation[0][0]
 D)                                                              ']                               
                                                                                                  
 block5e_bn (BatchNormalization  (None, 14, 14, 816)  3264       ['block5e_dwconv[0][0]']         
 )                                                                                                
                                                                                                  
 block5e_activation (Activation  (None, 14, 14, 816)  0          ['block5e_bn[0][0]']             
 )                                                                                                
                                                                                                  
 block5e_se_squeeze (GlobalAver  (None, 816)         0           ['block5e_activation[0][0]']     
 agePooling2D)                                                                                    
                                                                                                  
 block5e_se_reshape (Reshape)   (None, 1, 1, 816)    0           ['block5e_se_squeeze[0][0]']     
                                                                                                  
 block5e_se_reduce (Conv2D)     (None, 1, 1, 34)     27778       ['block5e_se_reshape[0][0]']     
                                                                                                  
 block5e_se_expand (Conv2D)     (None, 1, 1, 816)    28560       ['block5e_se_reduce[0][0]']      
                                                                                                  
 block5e_se_excite (Multiply)   (None, 14, 14, 816)  0           ['block5e_activation[0][0]',     
                                                                  'block5e_se_expand[0][0]']      
                                                                                                  
 block5e_project_conv (Conv2D)  (None, 14, 14, 136)  110976      ['block5e_se_excite[0][0]']      
                                                                                                  
 block5e_project_bn (BatchNorma  (None, 14, 14, 136)  544        ['block5e_project_conv[0][0]']   
 lization)                                                                                        
                                                                                                  
 block5e_drop (Dropout)         (None, 14, 14, 136)  0           ['block5e_project_bn[0][0]']     
                                                                                                  
 block5e_add (Add)              (None, 14, 14, 136)  0           ['block5e_drop[0][0]',           
                                                                  'block5d_add[0][0]']            
                                                                                                  
 block6a_expand_conv (Conv2D)   (None, 14, 14, 816)  110976      ['block5e_add[0][0]']            
                                                                                                  
 block6a_expand_bn (BatchNormal  (None, 14, 14, 816)  3264       ['block6a_expand_conv[0][0]']    
 ization)                                                                                         
                                                                                                  
 block6a_expand_activation (Act  (None, 14, 14, 816)  0          ['block6a_expand_bn[0][0]']      
 ivation)                                                                                         
                                                                                                  
 block6a_dwconv_pad (ZeroPaddin  (None, 17, 17, 816)  0          ['block6a_expand_activation[0][0]
 g2D)                                                            ']                               
                                                                                                  
 block6a_dwconv (DepthwiseConv2  (None, 7, 7, 816)   20400       ['block6a_dwconv_pad[0][0]']     
 D)                                                                                               
                                                                                                  
 block6a_bn (BatchNormalization  (None, 7, 7, 816)   3264        ['block6a_dwconv[0][0]']         
 )                                                                                                
                                                                                                  
 block6a_activation (Activation  (None, 7, 7, 816)   0           ['block6a_bn[0][0]']             
 )                                                                                                
                                                                                                  
 block6a_se_squeeze (GlobalAver  (None, 816)         0           ['block6a_activation[0][0]']     
 agePooling2D)                                                                                    
                                                                                                  
 block6a_se_reshape (Reshape)   (None, 1, 1, 816)    0           ['block6a_se_squeeze[0][0]']     
                                                                                                  
 block6a_se_reduce (Conv2D)     (None, 1, 1, 34)     27778       ['block6a_se_reshape[0][0]']     
                                                                                                  
 block6a_se_expand (Conv2D)     (None, 1, 1, 816)    28560       ['block6a_se_reduce[0][0]']      
                                                                                                  
 block6a_se_excite (Multiply)   (None, 7, 7, 816)    0           ['block6a_activation[0][0]',     
                                                                  'block6a_se_expand[0][0]']      
                                                                                                  
 block6a_project_conv (Conv2D)  (None, 7, 7, 232)    189312      ['block6a_se_excite[0][0]']      
                                                                                                  
 block6a_project_bn (BatchNorma  (None, 7, 7, 232)   928         ['block6a_project_conv[0][0]']   
 lization)                                                                                        
                                                                                                  
 block6b_expand_conv (Conv2D)   (None, 7, 7, 1392)   322944      ['block6a_project_bn[0][0]']     
                                                                                                  
 block6b_expand_bn (BatchNormal  (None, 7, 7, 1392)  5568        ['block6b_expand_conv[0][0]']    
 ization)                                                                                         
                                                                                                  
 block6b_expand_activation (Act  (None, 7, 7, 1392)  0           ['block6b_expand_bn[0][0]']      
 ivation)                                                                                         
                                                                                                  
 block6b_dwconv (DepthwiseConv2  (None, 7, 7, 1392)  34800       ['block6b_expand_activation[0][0]
 D)                                                              ']                               
                                                                                                  
 block6b_bn (BatchNormalization  (None, 7, 7, 1392)  5568        ['block6b_dwconv[0][0]']         
 )                                                                                                
                                                                                                  
 block6b_activation (Activation  (None, 7, 7, 1392)  0           ['block6b_bn[0][0]']             
 )                                                                                                
                                                                                                  
 block6b_se_squeeze (GlobalAver  (None, 1392)        0           ['block6b_activation[0][0]']     
 agePooling2D)                                                                                    
                                                                                                  
 block6b_se_reshape (Reshape)   (None, 1, 1, 1392)   0           ['block6b_se_squeeze[0][0]']     
                                                                                                  
 block6b_se_reduce (Conv2D)     (None, 1, 1, 58)     80794       ['block6b_se_reshape[0][0]']     
                                                                                                  
 block6b_se_expand (Conv2D)     (None, 1, 1, 1392)   82128       ['block6b_se_reduce[0][0]']      
                                                                                                  
 block6b_se_excite (Multiply)   (None, 7, 7, 1392)   0           ['block6b_activation[0][0]',     
                                                                  'block6b_se_expand[0][0]']      
                                                                                                  
 block6b_project_conv (Conv2D)  (None, 7, 7, 232)    322944      ['block6b_se_excite[0][0]']      
                                                                                                  
 block6b_project_bn (BatchNorma  (None, 7, 7, 232)   928         ['block6b_project_conv[0][0]']   
 lization)                                                                                        
                                                                                                  
 block6b_drop (Dropout)         (None, 7, 7, 232)    0           ['block6b_project_bn[0][0]']     
                                                                                                  
 block6b_add (Add)              (None, 7, 7, 232)    0           ['block6b_drop[0][0]',           
                                                                  'block6a_project_bn[0][0]']     
                                                                                                  
 block6c_expand_conv (Conv2D)   (None, 7, 7, 1392)   322944      ['block6b_add[0][0]']            
                                                                                                  
 block6c_expand_bn (BatchNormal  (None, 7, 7, 1392)  5568        ['block6c_expand_conv[0][0]']    
 ization)                                                                                         
                                                                                                  
 block6c_expand_activation (Act  (None, 7, 7, 1392)  0           ['block6c_expand_bn[0][0]']      
 ivation)                                                                                         
                                                                                                  
 block6c_dwconv (DepthwiseConv2  (None, 7, 7, 1392)  34800       ['block6c_expand_activation[0][0]
 D)                                                              ']                               
                                                                                                  
 block6c_bn (BatchNormalization  (None, 7, 7, 1392)  5568        ['block6c_dwconv[0][0]']         
 )                                                                                                
                                                                                                  
 block6c_activation (Activation  (None, 7, 7, 1392)  0           ['block6c_bn[0][0]']             
 )                                                                                                
                                                                                                  
 block6c_se_squeeze (GlobalAver  (None, 1392)        0           ['block6c_activation[0][0]']     
 agePooling2D)                                                                                    
                                                                                                  
 block6c_se_reshape (Reshape)   (None, 1, 1, 1392)   0           ['block6c_se_squeeze[0][0]']     
                                                                                                  
 block6c_se_reduce (Conv2D)     (None, 1, 1, 58)     80794       ['block6c_se_reshape[0][0]']     
                                                                                                  
 block6c_se_expand (Conv2D)     (None, 1, 1, 1392)   82128       ['block6c_se_reduce[0][0]']      
                                                                                                  
 block6c_se_excite (Multiply)   (None, 7, 7, 1392)   0           ['block6c_activation[0][0]',     
                                                                  'block6c_se_expand[0][0]']      
                                                                                                  
 block6c_project_conv (Conv2D)  (None, 7, 7, 232)    322944      ['block6c_se_excite[0][0]']      
                                                                                                  
 block6c_project_bn (BatchNorma  (None, 7, 7, 232)   928         ['block6c_project_conv[0][0]']   
 lization)                                                                                        
                                                                                                  
 block6c_drop (Dropout)         (None, 7, 7, 232)    0           ['block6c_project_bn[0][0]']     
                                                                                                  
 block6c_add (Add)              (None, 7, 7, 232)    0           ['block6c_drop[0][0]',           
                                                                  'block6b_add[0][0]']            
                                                                                                  
 block6d_expand_conv (Conv2D)   (None, 7, 7, 1392)   322944      ['block6c_add[0][0]']            
                                                                                                  
 block6d_expand_bn (BatchNormal  (None, 7, 7, 1392)  5568        ['block6d_expand_conv[0][0]']    
 ization)                                                                                         
                                                                                                  
 block6d_expand_activation (Act  (None, 7, 7, 1392)  0           ['block6d_expand_bn[0][0]']      
 ivation)                                                                                         
                                                                                                  
 block6d_dwconv (DepthwiseConv2  (None, 7, 7, 1392)  34800       ['block6d_expand_activation[0][0]
 D)                                                              ']                               
                                                                                                  
 block6d_bn (BatchNormalization  (None, 7, 7, 1392)  5568        ['block6d_dwconv[0][0]']         
 )                                                                                                
                                                                                                  
 block6d_activation (Activation  (None, 7, 7, 1392)  0           ['block6d_bn[0][0]']             
 )                                                                                                
                                                                                                  
 block6d_se_squeeze (GlobalAver  (None, 1392)        0           ['block6d_activation[0][0]']     
 agePooling2D)                                                                                    
                                                                                                  
 block6d_se_reshape (Reshape)   (None, 1, 1, 1392)   0           ['block6d_se_squeeze[0][0]']     
                                                                                                  
 block6d_se_reduce (Conv2D)     (None, 1, 1, 58)     80794       ['block6d_se_reshape[0][0]']     
                                                                                                  
 block6d_se_expand (Conv2D)     (None, 1, 1, 1392)   82128       ['block6d_se_reduce[0][0]']      
                                                                                                  
 block6d_se_excite (Multiply)   (None, 7, 7, 1392)   0           ['block6d_activation[0][0]',     
                                                                  'block6d_se_expand[0][0]']      
                                                                                                  
 block6d_project_conv (Conv2D)  (None, 7, 7, 232)    322944      ['block6d_se_excite[0][0]']      
                                                                                                  
 block6d_project_bn (BatchNorma  (None, 7, 7, 232)   928         ['block6d_project_conv[0][0]']   
 lization)                                                                                        
                                                                                                  
 block6d_drop (Dropout)         (None, 7, 7, 232)    0           ['block6d_project_bn[0][0]']     
                                                                                                  
 block6d_add (Add)              (None, 7, 7, 232)    0           ['block6d_drop[0][0]',           
                                                                  'block6c_add[0][0]']            
                                                                                                  
 block6e_expand_conv (Conv2D)   (None, 7, 7, 1392)   322944      ['block6d_add[0][0]']            
                                                                                                  
 block6e_expand_bn (BatchNormal  (None, 7, 7, 1392)  5568        ['block6e_expand_conv[0][0]']    
 ization)                                                                                         
                                                                                                  
 block6e_expand_activation (Act  (None, 7, 7, 1392)  0           ['block6e_expand_bn[0][0]']      
 ivation)                                                                                         
                                                                                                  
 block6e_dwconv (DepthwiseConv2  (None, 7, 7, 1392)  34800       ['block6e_expand_activation[0][0]
 D)                                                              ']                               
                                                                                                  
 block6e_bn (BatchNormalization  (None, 7, 7, 1392)  5568        ['block6e_dwconv[0][0]']         
 )                                                                                                
                                                                                                  
 block6e_activation (Activation  (None, 7, 7, 1392)  0           ['block6e_bn[0][0]']             
 )                                                                                                
                                                                                                  
 block6e_se_squeeze (GlobalAver  (None, 1392)        0           ['block6e_activation[0][0]']     
 agePooling2D)                                                                                    
                                                                                                  
 block6e_se_reshape (Reshape)   (None, 1, 1, 1392)   0           ['block6e_se_squeeze[0][0]']     
                                                                                                  
 block6e_se_reduce (Conv2D)     (None, 1, 1, 58)     80794       ['block6e_se_reshape[0][0]']     
                                                                                                  
 block6e_se_expand (Conv2D)     (None, 1, 1, 1392)   82128       ['block6e_se_reduce[0][0]']      
                                                                                                  
 block6e_se_excite (Multiply)   (None, 7, 7, 1392)   0           ['block6e_activation[0][0]',     
                                                                  'block6e_se_expand[0][0]']      
                                                                                                  
 block6e_project_conv (Conv2D)  (None, 7, 7, 232)    322944      ['block6e_se_excite[0][0]']      
                                                                                                  
 block6e_project_bn (BatchNorma  (None, 7, 7, 232)   928         ['block6e_project_conv[0][0]']   
 lization)                                                                                        
                                                                                                  
 block6e_drop (Dropout)         (None, 7, 7, 232)    0           ['block6e_project_bn[0][0]']     
                                                                                                  
 block6e_add (Add)              (None, 7, 7, 232)    0           ['block6e_drop[0][0]',           
                                                                  'block6d_add[0][0]']            
                                                                                                  
 block6f_expand_conv (Conv2D)   (None, 7, 7, 1392)   322944      ['block6e_add[0][0]']            
                                                                                                  
 block6f_expand_bn (BatchNormal  (None, 7, 7, 1392)  5568        ['block6f_expand_conv[0][0]']    
 ization)                                                                                         
                                                                                                  
 block6f_expand_activation (Act  (None, 7, 7, 1392)  0           ['block6f_expand_bn[0][0]']      
 ivation)                                                                                         
                                                                                                  
 block6f_dwconv (DepthwiseConv2  (None, 7, 7, 1392)  34800       ['block6f_expand_activation[0][0]
 D)                                                              ']                               
                                                                                                  
 block6f_bn (BatchNormalization  (None, 7, 7, 1392)  5568        ['block6f_dwconv[0][0]']         
 )                                                                                                
                                                                                                  
 block6f_activation (Activation  (None, 7, 7, 1392)  0           ['block6f_bn[0][0]']             
 )                                                                                                
                                                                                                  
 block6f_se_squeeze (GlobalAver  (None, 1392)        0           ['block6f_activation[0][0]']     
 agePooling2D)                                                                                    
                                                                                                  
 block6f_se_reshape (Reshape)   (None, 1, 1, 1392)   0           ['block6f_se_squeeze[0][0]']     
                                                                                                  
 block6f_se_reduce (Conv2D)     (None, 1, 1, 58)     80794       ['block6f_se_reshape[0][0]']     
                                                                                                  
 block6f_se_expand (Conv2D)     (None, 1, 1, 1392)   82128       ['block6f_se_reduce[0][0]']      
                                                                                                  
 block6f_se_excite (Multiply)   (None, 7, 7, 1392)   0           ['block6f_activation[0][0]',     
                                                                  'block6f_se_expand[0][0]']      
                                                                                                  
 block6f_project_conv (Conv2D)  (None, 7, 7, 232)    322944      ['block6f_se_excite[0][0]']      
                                                                                                  
 block6f_project_bn (BatchNorma  (None, 7, 7, 232)   928         ['block6f_project_conv[0][0]']   
 lization)                                                                                        
                                                                                                  
 block6f_drop (Dropout)         (None, 7, 7, 232)    0           ['block6f_project_bn[0][0]']     
                                                                                                  
 block6f_add (Add)              (None, 7, 7, 232)    0           ['block6f_drop[0][0]',           
                                                                  'block6e_add[0][0]']            
                                                                                                  
 block7a_expand_conv (Conv2D)   (None, 7, 7, 1392)   322944      ['block6f_add[0][0]']            
                                                                                                  
 block7a_expand_bn (BatchNormal  (None, 7, 7, 1392)  5568        ['block7a_expand_conv[0][0]']    
 ization)                                                                                         
                                                                                                  
 block7a_expand_activation (Act  (None, 7, 7, 1392)  0           ['block7a_expand_bn[0][0]']      
 ivation)                                                                                         
                                                                                                  
 block7a_dwconv (DepthwiseConv2  (None, 7, 7, 1392)  12528       ['block7a_expand_activation[0][0]
 D)                                                              ']                               
                                                                                                  
 block7a_bn (BatchNormalization  (None, 7, 7, 1392)  5568        ['block7a_dwconv[0][0]']         
 )                                                                                                
                                                                                                  
 block7a_activation (Activation  (None, 7, 7, 1392)  0           ['block7a_bn[0][0]']             
 )                                                                                                
                                                                                                  
 block7a_se_squeeze (GlobalAver  (None, 1392)        0           ['block7a_activation[0][0]']     
 agePooling2D)                                                                                    
                                                                                                  
 block7a_se_reshape (Reshape)   (None, 1, 1, 1392)   0           ['block7a_se_squeeze[0][0]']     
                                                                                                  
 block7a_se_reduce (Conv2D)     (None, 1, 1, 58)     80794       ['block7a_se_reshape[0][0]']     
                                                                                                  
 block7a_se_expand (Conv2D)     (None, 1, 1, 1392)   82128       ['block7a_se_reduce[0][0]']      
                                                                                                  
 block7a_se_excite (Multiply)   (None, 7, 7, 1392)   0           ['block7a_activation[0][0]',     
                                                                  'block7a_se_expand[0][0]']      
                                                                                                  
 block7a_project_conv (Conv2D)  (None, 7, 7, 384)    534528      ['block7a_se_excite[0][0]']      
                                                                                                  
 block7a_project_bn (BatchNorma  (None, 7, 7, 384)   1536        ['block7a_project_conv[0][0]']   
 lization)                                                                                        
                                                                                                  
 block7b_expand_conv (Conv2D)   (None, 7, 7, 2304)   884736      ['block7a_project_bn[0][0]']     
                                                                                                  
 block7b_expand_bn (BatchNormal  (None, 7, 7, 2304)  9216        ['block7b_expand_conv[0][0]']    
 ization)                                                                                         
                                                                                                  
 block7b_expand_activation (Act  (None, 7, 7, 2304)  0           ['block7b_expand_bn[0][0]']      
 ivation)                                                                                         
                                                                                                  
 block7b_dwconv (DepthwiseConv2  (None, 7, 7, 2304)  20736       ['block7b_expand_activation[0][0]
 D)                                                              ']                               
                                                                                                  
 block7b_bn (BatchNormalization  (None, 7, 7, 2304)  9216        ['block7b_dwconv[0][0]']         
 )                                                                                                
                                                                                                  
 block7b_activation (Activation  (None, 7, 7, 2304)  0           ['block7b_bn[0][0]']             
 )                                                                                                
                                                                                                  
 block7b_se_squeeze (GlobalAver  (None, 2304)        0           ['block7b_activation[0][0]']     
 agePooling2D)                                                                                    
                                                                                                  
 block7b_se_reshape (Reshape)   (None, 1, 1, 2304)   0           ['block7b_se_squeeze[0][0]']     
                                                                                                  
 block7b_se_reduce (Conv2D)     (None, 1, 1, 96)     221280      ['block7b_se_reshape[0][0]']     
                                                                                                  
 block7b_se_expand (Conv2D)     (None, 1, 1, 2304)   223488      ['block7b_se_reduce[0][0]']      
                                                                                                  
 block7b_se_excite (Multiply)   (None, 7, 7, 2304)   0           ['block7b_activation[0][0]',     
                                                                  'block7b_se_expand[0][0]']      
                                                                                                  
 block7b_project_conv (Conv2D)  (None, 7, 7, 384)    884736      ['block7b_se_excite[0][0]']      
                                                                                                  
 block7b_project_bn (BatchNorma  (None, 7, 7, 384)   1536        ['block7b_project_conv[0][0]']   
 lization)                                                                                        
                                                                                                  
 block7b_drop (Dropout)         (None, 7, 7, 384)    0           ['block7b_project_bn[0][0]']     
                                                                                                  
 block7b_add (Add)              (None, 7, 7, 384)    0           ['block7b_drop[0][0]',           
                                                                  'block7a_project_bn[0][0]']     
                                                                                                  
 top_conv (Conv2D)              (None, 7, 7, 1536)   589824      ['block7b_add[0][0]']            
                                                                                                  
 top_bn (BatchNormalization)    (None, 7, 7, 1536)   6144        ['top_conv[0][0]']               
                                                                                                  
 top_activation (Activation)    (None, 7, 7, 1536)   0           ['top_bn[0][0]']                 
                                                                                                  
 avg_pool (GlobalAveragePooling  (None, 1536)        0           ['top_activation[0][0]']         
 2D)                                                                                              
                                                                                                  
 batch_normalization (BatchNorm  (None, 1536)        6144        ['avg_pool[0][0]']               
 alization)                                                                                       
                                                                                                  
 top_dropout (Dropout)          (None, 1536)         0           ['batch_normalization[0][0]']    
                                                                                                  
 pred (Dense)                   (None, 3)            4611        ['top_dropout[0][0]']            
                                                                                                  
==================================================================================================
Total params: 10,794,290
Trainable params: 7,683
Non-trainable params: 10,786,607
______________________________________________________________________________
…
